…
        layers.Conv2D(32, kernel_size=(3, 3), activation="relu"),
        layers.MaxPooling2D(pool_size=(2, 2)),
        layers.Conv2D(64, kernel_size=(3, 3), activation="relu"),
        layers.MaxPooling2D(pool_size=(2, 2)),
        layers.Flatten(),
        layers.Dropout(0.5),
        layers.Dense(num_classes, activation="softmax"),
    ]
)

model.summary()
#+end_src

#+RESULTS:
#+begin_example
Model: "sequential_30"
_________________________________________________________________
 Layer (type)                Output Shape              Param #
=================================================================
 conv2d_60 (Conv2D)          (None, 26, 26, 32)        320

 max_pooling2d_60 (MaxPooli  (None, 13, 13, 32)        0
 ng2D)

 conv2d_61 (Conv2D)          (None, 11, 11, 64)        18496

 max_pooling2d_61 (MaxPooli  (None, 5, 5, 64)          0
 ng2D)

 flatten_30 (Flatten)        (None, 1600)              0

 dropout_30 (Dropout)        (None, 1600)              0

 dense_30 (Dense)            (None, 10)                16010

=================================================================
Total params: 34826 (136.04 KB)
Trainable params: 34826 (136.04 KB)
Non-trainable params: 0 (0.00 Byte)
_________________________________________________________________
#+end_example


* Set the parameters, compile and train the model

#+begin_src python :session :results output
batch_size = 128
epochs = 10

model.compile(loss="categorical_crossentropy", optimizer="adam", metrics=["accuracy"])
…
